image_classification_model/cifar_net.pth (torch, 251604 bytes, 10 tensors)

conv1.weight f4 [6, 3, 5, 5]
0	0xbd7f0072	-0.062256284
1	0xbd8750ec	-0.066072315
2	0xbce2f36e	-0.027703967
3	0x3dd109b6	0.1020693
4	0x3b98d81e	0.004664435
5	0xbe1e4d78	-0.1545924
6	0xbe8a661f	-0.27031037
7	0xbe5db317	-0.21650349
8	0xbe456021	-0.19274952
9	0xbde4de64	-0.1117523
10	0xbeab75bc	-0.33488262
11	0xbe94a121	-0.29029182
12	0xbe17a5dd	-0.14809366
13	0xbcc8d41a	-0.0245152
14	0xbdaeb105	-0.085298575
15	0xbe04c423	-0.12965445
16	0xbdd88d95	-0.1057388
17	0xbe0614ea	-0.13093916
18	0xbca2165a	-0.019786049
19	0xbcbb25d4	-0.022845186
20	0xbe56b42a	-0.20967165
21	0xbd8867ab	-0.06660398
22	0x3c9f5fd3	0.019454872
23	0x3d88c99b	0.06679078
24	0xbd86b5d0	-0.06577647
25	0xbe4fe7ce	-0.2030327
26	0xbdeb866e	-0.1150025
27	0x3dafb024	0.08578518
28	0xbc6c5096	-0.01442351
29	0x3d540108	0.051758796
30	0xbd1f9a56	-0.038965546
31	0x3da8020b	0.08203515
32	0x3d59d567	0.053182032
33	0xbd1db534	-0.038502887
34	0xbcb48a85	-0.022038708
35	0x3dba2cc5	0.0909057
36	0x3d037c06	0.0321007
37	0x3dacd176	0.08438389
38	0x3e03b6c4	0.12862688
39	0x3c8b22be	0.01698434
40	0xbd9541a1	-0.07287908
41	0x3d14102c	0.036148235
42	0xbde4e774	-0.11176959
43	0x3c1197b6	0.008886268
44	0xbd9554f0	-0.07291591
45	0xbdec5d7e	-0.1154127
46	0xbd2fc923	-0.04291643
47	0xbb47718e	-0.0030432674
48	0x3dc252a3	0.09488418
49	0xbe390505	-0.18068321
50	0x3ddd84a8	0.10816318
51	0x3e374214	0.178963
52	0x3d85bc18	0.06530017
53	0x3e590c29	0.21196045
54	0x3e87710b	0.26453432
55	0x3e4c9f4f	0.19982646
56	0x3e2dc774	0.16970617
57	0x3e3dbdc3	0.1852942
58	0x3e9f1db6	0.31077355
59	0x3e6d99dc	0.23203224
60	0x3e4639df	0.19358014
61	0x3e9e186c	0.30878007
62	0x3e974ea1	0.29552177
63	0x3e8023f0	0.25027418
64	0x3defbd58	0.11706036
65	0x3e0423cb	0.12904279
66	0x3dc5ace1	0.09652115
67	0x3e7b996d	0.24570246
68	0x3dfd0959	0.123552985
69	0x3d7ffb65	0.062495608
70	0x3d8020d2	0.0625626
71	0x3c5897f0	0.0132198185
72	0x3d9ae614	0.07563415
73	0x3de4b6e8	0.11167699
74	0x3d9981f2	0.07495488
75	0xbe686833	-0.22695999
76	0xbe9db08e	-0.30798763
77	0xbdd10787	-0.10206514
78	0xbe079d9f	-0.13243721
79	0x3dd59f72	0.104308024
80	0x3e35a6b9	0.17739381
81	0x3e65a9a1	0.2242799
82	0x3ee9067a	0.45512754
83	0x3efe6621	0.49687293
84	0x3ed13e45	0.4086782
85	0x3dc7de06	0.097591445
86	0x3edba0a3	0.42895994
87	0x3f05a97b	0.5221173
88	0x3e8c5b80	0.2741356
89	0x3e526a64	0.20548397
90	0xbd974747	-0.07386642
91	0xbdead639	-0.11466641
92	0xbea738b9	-0.32660463
93	0xbedaadc1	-0.4271069
94	0xbe8d8159	-0.27637747
95	0xbc3013e6	-0.010746932
96	0xbe2d9010	-0.16949487
97	0xbe6983c4	-0.22804171
98	0xbe99047a	-0.29886228
99	0xbe54c1b4	-0.20777017
100	0xbe2b2480	-0.16713142
101	0xbe509f67	-0.20373307
102	0xbdc53448	-0.096291125
103	0xbea048a7	-0.3130543
104	0x3d682775	0.056678254
105	0x3de32e63	0.11092832
106	0x3e9540eb	0.2915109
107	0x3ea31ad8	0.31856418
108	0x3dbdb7b8	0.09263557
109	0x3d21df7a	0.039519764
110	0x3e758462	0.23976281
111	0x3ea528a8	0.3225758
112	0x3e93dbbe	0.28878587
113	0x3e211a73	0.15732746
114	0x3cd6aee5	0.026206443
115	0xbe1009e0	-0.14066267
116	0xbe672b1e	-0.22575042
117	0xbecce84e	-0.40020984
118	0xbe9e35ab	-0.3090032
119	0xbeb50164	-0.35352623
120	0xbd85fa46	-0.065418765
121	0xbe7fdc8b	-0.24986474
122	0xbe2da977	-0.16959177
123	0xbd0e4b21	-0.034739617
124	0xbd936203	-0.071964286
125	0xbdcf43f6	-0.101203844
126	0xbe7bbf44	-0.24584681
127	0xbe79f289	-0.24408926
128	0xbe6c5f8e	-0.23083326
129	0xbd5cbd3e	-0.053891413
130	0xbda1d4cc	-0.07901916
131	0x3bd10d82	0.006379784
132	0x3d15fd20	0.036618352
133	0x3dc5835b	0.09644195
134	0x3e01fa79	0.12693204
135	0x3e253359	0.16132869
136	0x3d51117b	0.05104206
137	0x3e16b25d	0.14716478
138	0x3de897f4	0.11357108
139	0x3dca51f6	0.09878914
140	0x3c027505	0.00796247
141	0xbe757818	-0.23971593
142	0xbe27a599	-0.16371764
143	0xbdf77355	-0.12082545
144	0xbd2cc1d5	-0.04217704
145	0xbd9c3b24	-0.07628468
146	0x3e05f5f3	0.13082103
147	0x3e488ff9	0.19586171
148	0x3e788395	0.24268945
149	0x3e98314e	0.29725116
150	0x3ef0e82f	0.47052142
151	0xbd4fe964	-0.050759688
152	0xbe6c53f1	-0.23078896
153	0xbe564c04	-0.20927435
154	0x3d40f387	0.047107246
155	0x3e43b92c	0.19113606
156	0xbf182283	-0.5942766
157	0xbe3c2e89	-0.18377127
158	0x3e3d784c	0.18502921
159	0x3e0abcf3	0.13548641
160	0xbe8f4c34	-0.27987826
161	0xbf0e8812	-0.55676377
162	0x3ebae5f1	0.36503556
163	0x3e450d2c	0.19243306
164	0xbdc7ac6c	-0.09749684
165	0xbe8bbda7	-0.2729313
166	0x3c2a4114	0.010391492
167	0x3ec77cde	0.38962454
168	0x3de6402d	0.11242709
169	0xbe4fbd3c	-0.20287031
170	0xbbf04e2b	-0.007333537
171	0x3dc20ea2	0.09475447
172	0x3c4ff478	0.012692563
173	0xbce2128e	-0.027596738
174	0xbdf4bb02	-0.119497314
175	0x3eac329b	0.3363236
176	0xbd5317ca	-0.05153636
177	0xbe3c071f	-0.18362091
178	0x3d7995fa	0.060934044
179	0x3d94b73f	0.07261514
180	0x3d62b914	0.055352286
181	0xbef82b52	-0.4847055
182	0xbe6b9153	-0.23004656
183	0x3e515682	0.20443156
184	0x3e589197	0.21149288
185	0xbd24c3fb	-0.040225964
186	0xbf04e819	-0.5191665
187	0x3ede0c35	0.43368688
188	0x3ef7c43d	0.48391905
189	0x3ca387d3	0.019962227
190	0xbdeab945	-0.114611186
191	0xbdae5818	-0.08512896
192	0x3f047b90	0.5175104
193	0x3dab1788	0.083540976
194	0xbd93c3c9	-0.072150774
195	0xbcdfefa8	-0.027335957
196	0x3e5be4ef	0.2147405
197	0x3e34f9aa	0.17673364
198	0x3db2a0f0	0.08722103
199	0x3d4cf93c	0.050042376
200	0x3e90ab85	0.2825586
201	0xbe2a03da	-0.16603032
202	0xbdf07a62	-0.11742093
203	0xbe0c8524	-0.13722664
204	0x3c49c26f	0.012314423
205	0x3e13e9bc	0.14444631
206	0xbed23a83	-0.41060266
207	0xbe35b538	-0.1774491
208	0x3e169f71	0.1470926
209	0x3d909883	0.07060339
210	0xbe69ad37	-0.22819982
211	0xbef01318	-0.46889567
212	0x3eac3323	0.33632764
213	0x3e70b891	0.23507906
214	0x3b696bdc	0.0035617268
215	0xbe5ee7e2	-0.21768144
216	0xbe0f9cce	-0.1402466
217	0x3ec6db2a	0.38839084
218	0x3d3cd1ea	0.046098627
219	0xbe2f94e3	-0.1714664
220	0xbe08a77a	-0.13345137
221	0x3e4d7dad	0.20067473
222	0x3d91b14a	0.07113893
223	0xbe12c151	-0.14331557
224	0xbe0ec74c	-0.13943213
225	0x3e869a5d	0.26289645
226	0x3e36ef5b	0.17864744
227	0x3e404f98	0.18780363
228	0x3e629390	0.22126603
229	0x3e3ce46b	0.1844651
230	0x3e2499cc	0.16074294
231	0x3e1435a8	0.14473593
232	0x3e63d462	0.22248986
233	0x3e6bad8a	0.23015419
234	0x3e2570cc	0.1615631
235	0x3dee3339	0.11630864
236	0x3e3b7bfe	0.18309018
237	0x3e34a092	0.17639378
238	0x3dac0589	0.08399493
239	0x3e120bb9	0.14262284
240	0x3e281417	0.16413914
241	0xbc88aa26	-0.016682696
242	0x3d1dec92	0.03855569
243	0x3e313a76	0.17307457
244	0x3e458a1c	0.19290966
245	0x3d4783f1	0.048709814
246	0xbe3abed9	-0.18236865
247	0xbdd82e0a	-0.10555656
248	0xbe1a824b	-0.15088765
249	0x3d51f3ba	0.051257826
250	0xbe92d618	-0.28678966
251	0xbe9a5df7	-0.30149814
252	0xbe523a97	-0.20530163
253	0xbe1ee1a9	-0.1551577
254	0xbe0ec238	-0.13941276
255	0xbe7bc821	-0.24588062

conv1.bias f4 [6]
0	0x3ed01d01	0.40647128
1	0xbefc0ac8	-0.49226975
2	0xbdcf078f	-0.101088636
3	0xbe758581	-0.23976709
4	0xbed68937	-0.41901562
5	0xbe432282	-0.19056132

conv2.weight f4 [16, 6, 5, 5]
0	0x3de7ad52	0.11312355
1	0x3da27a59	0.07933492
2	0x3d2b17d2	0.041770764
3	0x3d96d3d1	0.073646195
4	0xbdb0fffd	-0.08642576
5	0xbd003b91	-0.031306807
6	0x3ca7c60a	0.020480175
7	0xbb2a4279	-0.0025979562
8	0xbd90d039	-0.07070965
9	0xbdede6b3	-0.11616268
10	0xbd93707f	-0.07199191
11	0x3d08c0b4	0.0333869
12	0x3d8321de	0.06402944
13	0xbe44419f	-0.19165657
14	0xbdf47f94	-0.11938396
15	0xbba971f7	-0.0051710564
16	0x3db57cbd	0.088616826
17	0x3c51e085	0.012809877
18	0xbe187937	-0.1488999
19	0xbd5502f9	-0.052004788
20	0x3c3522c4	0.011055652
21	0x3b9068b0	0.004407011
22	0xbc7916e3	-0.0152032105
23	0xbe3e27a6	-0.18569812
24	0xbe14039f	-0.14454506
25	0x3cbd568a	0.023112554
26	0xbd2529fd	-0.040323246
27	0x3d0d42e1	0.03448761
28	0xbc69aee9	-0.014262893
29	0xbc3b5222	-0.011433156
30	0xbd40b6cc	-0.04704933
31	0xbcd85c2f	-0.026411144
32	0xbccf713a	-0.025322545
33	0xbd894b8d	-0.06703863
34	0x3c2c2582	0.010506989
35	0x3c2316fa	0.0099542085
36	0xbdab20a5	-0.08355836
37	0xbd8c3461	-0.06845928
38	0xbda01918	-0.07817286
39	0xbdc80bf4	-0.09767905
40	0xbd8bdd40	-0.068293095
41	0x3d0e4eb4	0.034743026
42	0x3cd838bc	0.02639424
43	0xbd584a97	-0.05280551
44	0xbda8cc3e	-0.08242081
45	0xbd9f2f71	-0.077727206
46	0xbca2684e	-0.019825127
47	0x3c72ad63	0.014811846
48	0xbc3d8208	-0.011566646
49	0x3cac1f2d	0.02101096
50	0x3d631504	0.055439964
51	0xbc8274ab	-0.015924772
52	0xbda60303	-0.08106043
53	0xbe2b18a5	-0.1670862
54	0xbe670d05	-0.2256356
55	0x3d5fe4b2	0.05466146
56	0x3c79284d	0.015207362
57	0x3cc752fc	0.024331562
58	0xbe70e816	-0.23526034
59	0xbdea1ec6	-0.11431651
60	0xbd89dcf8	-0.067315996
61	0x3e49c21f	0.19702958
62	0xbca53f74	-0.020171858
63	0xbe3f18e7	-0.18661843
64	0xbdc546e5	-0.09632663
65	0x3cb8c2c9	0.022553818
66	0x3eb18182	0.3466912
67	0xbca8998c	-0.02058103
68	0xbe67f146	-0.22650632
69	0x3c0be18a	0.008537659
70	0xbc6175ae	-0.013760967
71	0x3e935c7c	0.28781497
72	0xbd9d2071	-0.07672203
73	0xbe900936	-0.28132027
74	0xbcb5a0b0	-0.022171348
75	0x3deda83e	0.11604355
76	0x3c8fa3dd	0.01753419
77	0xbd31557c	-0.043294415
78	0xbda2df66	-0.07952766
79	0xbdc449bc	-0.09584376
80	0x3da55200	0.08072281
81	0x3cb8320e	0.022484805
82	0xbdba3c49	-0.0909353
83	0xbd70723b	-0.05870269
84	0xbd80188e	-0.062546834
85	0x3c92a0b8	0.017898902
86	0x3e19d1c9	0.15021433
87	0xbe4f0e61	-0.20220329
88	0xbd9e84d0	-0.07740176
89	0x3d61a1f9	0.05508611
90	0x3c53405f	0.012893765
91	0x3e06e4ad	0.1317317
92	0xbe47e561	-0.19521095
93	0xbdfd5e47	-0.123714976
94	0x3e128ae0	0.14310789
95	0x3da750db	0.08169719
96	0x3d388207	0.04504588
97	0xbe180a42	-0.14847663
98	0xbe0640b4	-0.1311062
99	0x3e14ac86	0.14518937
100	0xbde4e9c2	-0.11177398
101	0xbd5fbf37	-0.054625716
102	0x3c3deabe	0.011591611
103	0x3d12ac36	0.035808764
104	0xbba7e808	-0.005124096
105	0xbd9c8770	-0.0764302
106	0x3c9f83f6	0.019472104
107	0xbd227b88	-0.03966859
108	0x3db8bec9	0.090207644
109	0x3d8cddb3	0.06878223
110	0xbd7c7c8e	-0.061642222
111	0x3cd5aa9b	0.026082328
112	0x3d113b10	0.035456717
113	0x3e322a8e	0.17399046
114	0x3daa4a00	0.08314896
115	0xbd8b972a	-0.06815942
116	0xbc47b613	-0.012189406
117	0x3d6dac58	0.058025688
118	0x3d9a451d	0.075327136
119	0x3e09b1de	0.13446757
120	0xbe3151af	-0.17316316
121	0xbd832638	-0.06403774
122	0xbd5ba4d5	-0.053623993
123	0x3d833b43	0.06407788
124	0x3ca076a3	0.01958782
125	0x3e1669ae	0.14688751
126	0x3d9290f1	0.07156552
127	0x3d0c274a	0.034217156
128	0xbdc803f4	-0.09766379
129	0xbd0b5971	-0.034020845
130	0x3d9c70b1	0.07638682
131	0x3e4008e3	0.1875339
132	0xbd7b8223	-0.061403405
133	0xbe2c9e15	-0.16857179
134	0xbdade79e	-0.08491443
135	0xbd20c39a	-0.03924904
136	0x3e328c2e	0.17436287
137	0xbe61fddb	-0.22069494
138	0xbe4a0711	-0.19729258
139	0x3a56c805	0.00081932574
140	0xbc4e678d	-0.012597931
141	0x3e212c6c	0.15739602
142	0xbda70e29	-0.08156998
143	0xbe135acd	-0.14390106
144	0xbc6b5c8a	-0.014365325
145	0xbc3fae4d	-0.011699271
146	0x3de519a6	0.11186533
147	0xbe80cfe8	-0.2515862
148	0xbe3fb968	-0.1872307
149	0x3cc82209	0.024430292
150	0xbc30022a	-0.010742703
151	0x3cbe0028	0.023193434
152	0x3da4b851	0.08042968
153	0x3cdd3f44	0.027007706
154	0xbbb84d1d	-0.005624427
155	0x3d7578ab	0.05992953
156	0x3be9bb79	0.007132944
157	0x3db7b588	0.08970171
158	0xbde1f5e3	-0.11033227
159	0x3d2c56cd	0.042074967
160	0xbb9e54ff	-0.0048319097
161	0x3c06daaa	0.0082308445
162	0x3de89658	0.11356801
163	0xbdf0ad95	-0.11751858
164	0x3ccbb2d7	0.02486555
165	0xbd6ad1b3	-0.05732889
166	0x3df877ca	0.12132223
167	0x3d582c57	0.05277666
168	0xbe100075	-0.14062674
169	0xbd6c176c	-0.057639524
170	0xbda0a4b3	-0.07843914
171	0x3cfa5afc	0.030560963
172	0xbd344eb4	-0.04402037
173	0xbdf3df18	-0.11907786
174	0xbe05b197	-0.13056026
175	0x3d9b0629	0.07569534
176	0x3cf59fc5	0.02998341
177	0xbc74fb61	-0.0149525115
178	0x3cabd38b	0.020974895
179	0x3db7c3c7	0.089728884
180	0x3d97ede3	0.0741842
181	0xbd987549	-0.07444245
182	0xbd33fa9b	-0.043940168
183	0xbd4897f2	-0.04897303
184	0xbc51725a	-0.012783611
185	0x3d07a1d1	0.033113305
186	0x3d3ead26	0.046551846
187	0xbdac184b	-0.08403071
188	0xbbfcadec	-0.007711163
189	0xbd54021f	-0.051759835
190	0xbc6130d6	-0.013744554
191	0x3c1b1f48	0.009467907
192	0xbd2ebc78	-0.042660207
193	0xbd893315	-0.06699196
194	0xbe44b648	-0.1921016
195	0x3cac4bd9	0.02103226
196	0x3d17a831	0.037025634
197	0xbbda1265	-0.006655025
198	0xbca49799	-0.020091819
199	0x3d1f29f7	0.03885838
200	0x3dc8bdb3	0.09801807
201	0xba672809	-0.00088179164
202	0x3e8534b4	0.26016772
203	0xbddb8e08	-0.1072045
204	0x3e022c1e	0.12712142
205	0x3d564c49	0.052318845
206	0x3bc56756	0.0060242815
207	0x3e6d4454	0.23170596
208	0xbecac3b2	-0.3960243
209	0x3e46c005	0.19409187
210	0xbd996df0	-0.07491672
211	0x3cf6974b	0.030101439
212	0x3e9e6e6b	0.30943617
213	0xbecd4760	-0.40093517
214	0x3e8f3ee1	0.2797766
215	0xbe59efcd	-0.21282883
216	0x3d6e0c5d	0.05811726
217	0x3e09531e	0.13410613
218	0xbe91e908	-0.284981
219	0x3e611880	0.21982002
220	0xbe8bb294	-0.27284682
221	0x3dfc0eee	0.12307535
222	0xbd2891dc	-0.041154727
223	0xbe47016b	-0.19434135
224	0x3d95d360	0.07315707
225	0xbd0d0da9	-0.034436855
226	0x3d97c7ac	0.07411131
227	0xbd1f9b5f	-0.038966533
228	0x3da085b9	0.078380056
229	0x3e22f9af	0.15915559
230	0xbe274a39	-0.16336907
231	0x3d977710	0.07395756
232	0xbd8470ce	-0.06466828
233	0xbd6bb3bf	-0.057544466
234	0x3ddb241f	0.10700249
235	0xbe861ec6	-0.26195353
236	0x3e757eb2	0.23974112
237	0x3d812ab1	0.06306971
238	0xbe550385	-0.20802124
239	0x3e72d2e4	0.23713261
240	0xbe5888fe	-0.21146008
241	0x3e12059c	0.14259952
242	0xbcc56904	-0.024097927
243	0xbe5747fe	-0.21023557
244	0x3e152bdf	0.14567517
245	0xbdd02042	-0.10162403
246	0x3d2eed91	0.04270703
247	0xbd86cd96	-0.06582181
248	0xbe32a7c0	-0.17446804
249	0x3dd26180	0.10272503
250	0x3ce4b3ca	0.027917761
251	0xbd67027c	-0.056398854
252	0xbd9fd264	-0.07803801
253	0x3d80e0c3	0.0629287
254	0x3d72498c	0.05915217
255	0xbdee8cd3	-0.11647954

conv2.bias f4 [16]
0	0xbd73e20c	-0.059541747
1	0xbe636a76	-0.2220858
2	0x3eb3ad22	0.35093027
3	0x3ecd1940	0.40058327
4	0x3daae7ed	0.083450176
5	0xbe4e676b	-0.20156638
6	0xbf35d334	-0.71025395
7	0x3dbc5b75	0.091971315
8	0xbf618533	-0.8809387
9	0x3da124f6	0.07868378
10	0x3e5bfe24	0.21483666
11	0x3e3474bc	0.17622656
12	0xbe7c4260	-0.24634695
13	0x3efdf730	0.49602652
14	0xbea3c740	-0.31987953
15	0x3f56b80e	0.83874595

fc1.weight f4 [120, 400]
0	0xbd03a988	-0.0321441
1	0xbcee995d	-0.029125864
2	0xbc69dd5b	-0.014273967
3	0x3d7f819d	0.06237947
4	0xbd287753	-0.04112942
5	0xbd3dea15	-0.046365816
6	0xbd169533	-0.03676338
7	0xbc31c24b	-0.010849546
8	0xbd2d5d71	-0.04232544
9	0xbbeac4ab	-0.007164558
10	0xbc969d06	-0.018385421
11	0x3cbdbb62	0.02316064
12	0x3bcb3aaf	0.006202064
13	0xbcfb3f80	-0.030669928
14	0x3d481647	0.04884937
15	0xbc48dca6	-0.012259638
16	0xbcf69a7f	-0.030102966
17	0xbcad42d4	-0.02115003
18	0xbd65654b	-0.056004804
19	0xba9de384	-0.0012045954
20	0xbcefed27	-0.029287888
21	0xbcf44816	-0.02981953
22	0x3d8a1fd9	0.06744356
23	0x3ba77439	0.0051102904
24	0xbd2feb27	-0.042948868
25	0xbd90fde2	-0.07079674
26	0xbd8286ac	-0.06373343
27	0xbcc925ef	-0.024554221
28	0xbda4a0e2	-0.080384985
29	0x3aca92bf	0.0015455111
30	0x3d37be37	0.044859137
31	0xbb42d133	-0.0029726743
32	0xbd2036b7	-0.03911468
33	0x3c4a0016	0.012329122
34	0x3ce40ab6	0.027837139
35	0x3cae9346	0.02131046
36	0xbc46885b	-0.012117471
37	0xbd16368e	-0.03667312
38	0xbd7cf529	-0.06175724
39	0xbcca4e54	-0.024695553
40	0xbd7c337c	-0.061572537
41	0xbd93ae94	-0.072110325
42	0xbd489be3	-0.04897679
43	0xbdac98a2	-0.0842755
44	0x3ca69b56	0.020337742
45	0xbd02911e	-0.031876676
46	0xbd5fc0ed	-0.054627348
47	0xbcd13366	-0.025537204
48	0xbd2dbf78	-0.042418927
49	0x3d0d63fb	0.034519177
50	0x3d2e1b4c	0.0425065
51	0x3c1b6a0a	0.009485731
52	0x3db7024b	0.08935984
53	0x3d869b64	0.06572607
54	0xb9fb963c	-0.00047986384
55	0xbbb2b51e	-0.0054537198
56	0x3cd63e11	0.026152642
57	0x3c7822b9	0.015144997
58	0x3d02adf1	0.031904165
59	0xbb479423	-0.0030453287
60	0x3d4e26e3	0.050330054
61	0x3c8ca4e7	0.017168475
62	0x3d4f329f	0.050585385
63	0xbbe71baa	-0.0070528584
64	0x3d2c21bb	0.042024355
65	0xbcd5a714	-0.026080646
66	0xbc27fa5e	-0.010252563
67	0x3d7b1db8	0.06130764
68	0x3c5e2f21	0.013561041
69	0x3d6bc852	0.057564087
70	0xbd815a09	-0.06316001
71	0x3d1ec2a8	0.038759857
72	0xbb4da927	-0.003138134
73	0xbca02fee	-0.019554105
74	0xbc907181	-0.017632248
75	0xbda6e426	-0.081489846
76	0x3b138e73	0.0022515326
77	0xbc887a84	-0.016659983
78	0x3cf64dd0	0.0300664
79	0xbce75c1b	-0.028242161
80	0xbd6083a8	-0.054813057
81	0xbd353fa4	-0.044250146
82	0xbb034ca1	-0.0020034688
83	0x3b276f91	0.0025548676
84	0x3bf7c9c2	0.007561893
85	0xbbc53537	-0.0060183066
86	0xbd80153a	-0.06254049
87	0xbcf26b66	-0.029592227
88	0xbc4518dd	-0.012029854
89	0x3d184808	0.03717807
90	0x3d024adc	0.031809673
91	0x3b9d4210	0.004799135
92	0x3c8324c6	0.016008746
93	0xbc84044e	-0.016115334
94	0xbc07de84	-0.008292798
95	0xbbfc1361	-0.00769274
96	0xbcb41dbc	-0.021986835
97	0xbc9cbd64	-0.019133277
98	0x3b8e1644	0.0043361504
99	0x3cdb8144	0.026795037
100	0x3c28370e	0.010267032
101	0x3d899fb8	0.06719917
102	0xbb5c7442	-0.003363863
103	0x3cef60f7	0.029221041
104	0xbc38b16e	-0.011272771
105	0xbcd59f05	-0.026076803
106	0xbc15e13e	-0.00914794
107	0xbc1cec15	-0.009577771
108	0x3b4efb3e	0.0031582857
109	0x3bf06bfe	0.0073370924
110	0xbd8ad7ad	-0.06779418
111	0xbce6ee3a	-0.028189767
112	0xbd94dcca	-0.07268675
113	0xbd98befb	-0.07458302
114	0xbd46785e	-0.048454635
115	0x3d2514d5	0.04030307
116	0x3cb28e7e	0.021796461
117	0x3c8ffb59	0.017575907
118	0xbd364f26	-0.044509076
119	0xbcba6173	-0.022751546
120	0x3c500fe3	0.0126991
121	0x3d6940f9	0.05694673
122	0x3b91c0aa	0.004448016
123	0xbc2828eb	-0.010263662
124	0x3cec70af	0.028862325
125	0xbd99ec75	-0.07515804
126	0x3cabd790	0.020976812
127	0x3aff55ca	0.0019480523
128	0x3ccf77b5	0.025325635
129	0x3c90e274	0.017686106
130	0xbcc6c62e	-0.024264421
131	0x3c306238	0.010765605
132	0x3d689bd2	0.056789227
133	0xbd4a37f9	-0.049369786
134	0xbd86d8da	-0.0658433
135	0xbd25192b	-0.040307205
136	0x3c97e3e0	0.018541276
137	0xbd48fe49	-0.04907063
138	0xbd4a5188	-0.04939416
139	0xbd73bd46	-0.059506677
140	0x3d0a8114	0.033814505
141	0xbce0b6f4	-0.027430989
142	0x3ce1ba8f	0.027554778
143	0x3d88fd37	0.06688922
144	0xbd25618b	-0.040376227
145	0xbcedbe9c	-0.029021554
146	0xbcf8a92e	-0.030354109
147	0xbd18cd61	-0.03730524
148	0xbc1e0e6f	-0.009646996
149	0xbd8b75e4	-0.06809595
150	0x3c96f4ce	0.018427279
151	0x3d3d8a7f	0.04627466
152	0x3d198d5a	0.03748832
153	0x3c906162	0.01762456
154	0x3cbfd66d	0.023417676
155	0x3d132639	0.035925124
156	0x3d9b2893	0.07576098
157	0x3d8f1e42	0.06988193
158	0x3d43bf6d	0.04778998
159	0x3d418e7d	0.047255028
160	0xbd833062	-0.06405713
161	0x3d50402a	0.05084244
162	0x3d35505e	0.044266097
163	0xbd3e847c	-0.046513066
164	0xbda4e4c8	-0.08051449
165	0xbd5bf211	-0.05369765
166	0xbd857f9c	-0.0651848
167	0x3cb2f7f3	0.021846747
168	0xbd1cf639	-0.038320754
169	0x3c3f9fd9	0.0116958255
170	0xbd5fab69	-0.05460683
171	0xbcbd85f8	-0.02313517
172	0x3b1976bc	0.0023416718
173	0x3a94dde2	0.001135763
174	0xbd2ba06c	-0.041901037
175	0xbd34b5a0	-0.044118524
176	0x3be7afc5	0.007070514
177	0x3d04b0cb	0.032395165
178	0x3d1c6e96	0.0381914
179	0xbd7596d2	-0.059958287
180	0xbba73226	-0.0051024137
181	0xbc0a957d	-0.008458492
182	0xbc965a10	-0.018353492
183	0xbc05d78b	-0.008169065
184	0xbd4d45c0	-0.050115347
185	0x3cc31562	0.023813907
186	0x3cd84b2c	0.026403032
187	0x3cd61c41	0.02613652
188	0x3ac0674c	0.0014679222
189	0x3d1d857c	0.03845738
190	0x3bfa95af	0.007647238
191	0x3d256f1d	0.04038917
192	0x3cd60076	0.026123267
193	0x3bd61220	0.0065329224
194	0xbc84fece	-0.016234782
195	0x3c6e9632	0.014562177
196	0x3d09057b	0.033452492
197	0xbc56fcb0	-0.013121769
198	0xbc1c1abf	-0.009527861
199	0xbd04908a	-0.032364406
200	0x3d6dea9e	0.058085077
201	0xba51eb78	-0.0008007805
202	0x3d00aadc	0.031412944
203	0xbc68a8e9	-0.014200428
204	0xbcc35622	-0.023844782
205	0xbc23fe82	-0.01000941
206	0x3cd19482	0.02558351
207	0x3cd22626	0.025652956
208	0xbcfbf550	-0.030756623
209	0x3cde026b	0.027100762
210	0x3d3642db	0.044497352
211	0x3cd09d9d	0.02546578
212	0x3d17593d	0.03695034
213	0x3d855222	0.06509806
214	0xbd4f1adf	-0.050562736
215	0x3d82582e	0.06364475
216	0xba23e6f7	-0.0006252373
217	0xbca75ca3	-0.020429915
218	0xbcbeb2e8	-0.023278669
219	0xbd868e44	-0.06570104
220	0x3d391591	0.045186583
221	0xbcc9fd59	-0.024656938
222	0xbd377e42	-0.044798143
223	0x3d0b4d4c	0.034009263
224	0xbd801a0c	-0.06254968
225	0x3c2f9219	0.010715985
226	0x3cd7583a	0.026287187
227	0xbbb0410e	-0.005378849
228	0xbcc849da	-0.024449278
229	0x3cb5f02d	0.022209251
230	0x3d920783	0.07130339
231	0x3dc9a26b	0.09845432
232	0x3d560c3b	0.052257758
233	0x3d3e2431	0.046421234
234	0xbc787018	-0.015163444
235	0x3c2c9d15	0.010535498
236	0x3c61302a	0.013744393
237	0x3c763d5e	0.0150292795
238	0x3b5dc119	0.003383702
239	0x3cad1703	0.021129137
240	0x3d500883	0.050789367
241	0x3c5f673c	0.013635453
242	0x3c4e7b83	0.01260269
243	0x3c68b588	0.014203437
244	0x3d7c16e8	0.061545283
245	0x3cdfa9f7	0.027302725
246	0xbbc58914	-0.006028304
247	0x3ce86597	0.028368754
248	0xbc97f23a	-0.01854812
249	0x3b06a9f7	0.0020548084
250	0x3cb8de09	0.022566812
251	0xbda3b94d	-0.07994328
252	0x3b19fa89	0.0023495278
253	0xbd0e936c	-0.03480856
254	0xbd6c35af	-0.057668384
255	0xbcbfce81	-0.023413898

fc1.bias f4 [120]
0	0xbd5c6da2	-0.05381549
1	0x3de0fbd3	0.10985532
2	0xbd5e536f	-0.054278787
3	0x3e2f2800	0.17105103
4	0x3dea3ab5	0.11436979
5	0x3c6051fc	0.013691422
6	0x3dc61edb	0.09673854
7	0xb9bbaffc	-0.00035798538
8	0xbd16aec3	-0.03678776
9	0xbcae97b9	-0.021312581
10	0x3e149653	0.14510469
11	0x3ae9dd2c	0.0017842404
12	0x3c6ae5c8	0.014337011
13	0xbcfa6c33	-0.030569172
14	0x3e099d58	0.13438928
15	0x3d9d004d	0.07666073
16	0x3c46aa50	0.012125567
17	0x3d61c304	0.055117622
18	0xbd4ff06a	-0.050766386
19	0xbe1e791f	-0.15475892
20	0xbc7dfeac	-0.015502613
21	0xbd118641	-0.035528425
22	0xbb18638f	-0.00232527
23	0xbbc80057	-0.006103556
24	0x3e82ea52	0.25569397
25	0x3e2c0507	0.16798793
26	0xbb8d63cd	-0.0043148757
27	0x3cab4981	0.020909073
28	0x3dcdc9fe	0.100482926
29	0x3be9c784	0.00713438
30	0x3e6b000f	0.22949241
31	0x3c96c123	0.018402642
32	0xbd64b8b2	-0.0558402
33	0xbd75060c	-0.05982022
34	0xbdaf8238	-0.08569759
35	0x3cc86e00	0.024466515
36	0xbc537d38	-0.012908272
37	0xbc4e93b7	-0.01260846
38	0xbc35eee3	-0.011104318
39	0xbb9918d9	-0.0046721515
40	0xbc22ddcd	-0.009940577
41	0x3bfe201f	0.007755294
42	0x3d8c305f	0.068451636
43	0x3dcd8574	0.1003522
44	0xbd4dc996	-0.050241075
45	0xbc82e77f	-0.015979527
46	0x3b49b4f6	0.0030778027
47	0xbe0242e9	-0.12720837
48	0xbcfbaf57	-0.030723257
49	0x3b3d5f9f	0.0028896106
50	0x3d5f06e6	0.05444994
51	0xbdd63adc	-0.10460445
52	0x3d909ff2	0.07061757
53	0x3adc0086	0.0016784824
54	0x3cbde774	0.023181655
55	0xbd08e0e8	-0.033417612
56	0x3d990708	0.07472044
57	0x3e1a85b5	0.15090068
58	0x3d517d4e	0.05114489
59	0x3e1c5957	0.15268455
60	0x3d3576a3	0.044302594
61	0x3cadef97	0.02123241
62	0x3ce6fd08	0.028196827
63	0x3c9d68e8	0.019215062
64	0x3e092eee	0.13396809
65	0x3d5665f4	0.052343324
66	0x3dfc327c	0.12314317
67	0x3cf90503	0.030397898
68	0xbc9ae1fc	-0.018906586
69	0xbd57a848	-0.05265072
70	0x3d4067b9	0.046973918
71	0xbc7480e9	-0.014923313
72	0xbe12bc24	-0.14329582
73	0xbcfbe4f3	-0.03074882
74	0x3b868630	0.004105352
75	0xbd8145de	-0.06312154
76	0x3dabecf3	0.08394804
77	0x3caa09c4	0.02075661
78	0x3d3bbb32	0.04583282
79	0x3dbc9412	0.0920793
80	0x3c991c44	0.018690236
81	0xbd666d11	-0.056256358
82	0xbdc5ea1d	-0.09663794
83	0x3d03f203	0.032213222
84	0x3cfdc316	0.030976813
85	0x3e1a1014	0.15045196
86	0x3e6a6fba	0.22894183
87	0x3df6fdc6	0.12060122
88	0x3e069cf3	0.13145809
89	0x3d92e987	0.07173448
90	0xbda5351a	-0.08066769
91	0xbc56a5d8	-0.013101064
92	0xbbbc4427	-0.005745429
93	0x3d3f3d14	0.046689108
94	0x3db8c5f0	0.090221286
95	0xbd95cc81	-0.07314397
96	0x3dc09eae	0.09405266
97	0xbd64adf5	-0.05582996
98	0xbc825f8f	-0.015914707
99	0xbc4d9c8e	-0.012549533
100	0x3cb8e5b8	0.022570476
101	0xbdc2be1f	-0.09508919
102	0xbc788428	-0.015168227
103	0x3d3489d4	0.044076756
104	0x3da76f25	0.08175496
105	0x3cb6a3ff	0.022294996
106	0xbd32793d	-0.043572653
107	0x3d201020	0.039077878
108	0xbd56ac0d	-0.052410174
109	0x3bc90ad6	0.006135325
110	0xbd326f25	-0.043563027
111	0x3b9bff3c	0.004760651
112	0xbcaf8982	-0.021427874
113	0xbc648174	-0.01394688
114	0x3de1a900	0.11018562
115	0x3db6e53a	0.0893044
116	0x3d775880	0.060387135
117	0xbdadd850	-0.08488524
118	0x3dc2986f	0.09501731
119	0x3d56aaaf	0.05240887

fc2.weight f4 [84, 120]
0	0x3d73d79b	0.05953179
1	0xbd859473	-0.06522455
2	0x3c799f3f	0.015235721
3	0x3b2eb119	0.0026655851
4	0xbdadd3a0	-0.0848763
5	0x3ddf1515	0.10892693
6	0xbca9bbd0	-0.020719439
7	0x3ca85070	0.020546168
8	0x3caf69dc	0.021412782
9	0xbd3053a9	-0.043048535
10	0x3d9f183e	0.07768296
11	0xba6bd675	-0.0008996495
12	0x3d948add	0.072530486
13	0xbd7c367c	-0.061575398
14	0xbd23fdf0	-0.040037096
15	0xbdc9de5b	-0.09856864
16	0xbd8e1cc0	-0.069390774
17	0xbd4d1dab	-0.05007712
18	0xbd0e65b3	-0.034764957
19	0x3dafacaf	0.08577859
20	0xbbc964e9	-0.0061460626
21	0x3d5e959d	0.0543419
22	0x3e081d95	0.13292535
23	0xbd27d1b5	-0.040971477
24	0x3dd7d93d	0.10539482
25	0xbdbe813c	-0.09301993
26	0x3d177bb1	0.036983196
27	0xbd86032b	-0.06543573
28	0x3ca2316a	0.019798953
29	0xbd693098	-0.05693111
30	0xbe012550	-0.1261189
31	0x3cd3faf8	0.025876507
32	0xbb82e9a8	-0.003995139
33	0xbdb43acb	-0.08800276
34	0xbd457f1c	-0.048216924
35	0x3c00db8d	0.007864845
36	0xbdca051c	-0.09864256
37	0xbc3dacb2	-0.011576818
38	0x3d999284	0.07498649
39	0x3c44def3	0.012016046
40	0x3cd917d8	0.026500627
41	0x3dacd221	0.084385164
42	0x3ceb5216	0.028725665
43	0xbcdc95a8	-0.02692683
44	0xbd9f0e9f	-0.077664606
45	0x3d86235f	0.06549715
46	0xbd63adba	-0.0555856
47	0xbca0c2c2	-0.019624118
48	0xbd113370	-0.035449445
49	0x3b9f1af4	0.004855508
50	0xbd8dc675	-0.06922618
51	0x3e05be30	0.13060832
52	0x3dbe3e81	0.092892654
53	0x3ca6d742	0.020366315
54	0xbd668a48	-0.05628422
55	0xbda95e26	-0.082699105
56	0x3da466e9	0.08027441
57	0x3d9a9ddb	0.0754964
58	0x3d8d6ba9	0.069053
59	0xbd88c58c	-0.06678304
60	0xbc2f2360	-0.010689586
61	0xbdb8b587	-0.090189986
62	0xbde8f84c	-0.11375484
63	0x3db04248	0.08606392
64	0x3d8d3473	0.068947695
65	0x3cb79554	0.022410072
66	0xbd23fafe	-0.040034287
67	0x3debf149	0.11520631
68	0xbd600c24	-0.05469908
69	0x3db61ebf	0.08892583
70	0xbc04d5bc	-0.008107599
71	0x3d1172f7	0.03551003
72	0x3ca43817	0.020046277
73	0x3cf91e80	0.030410051
74	0x3c590893	0.013246673
75	0xbd853b6f	-0.06505477
76	0xbdba503b	-0.09097334
77	0x3ce52c2e	0.027975168
78	0x3c101899	0.008794927
79	0xbd76a034	-0.060211375
80	0x3d618674	0.055059865
81	0xbc1b9fcb	-0.009498547
82	0xbd469af3	-0.048487615
83	0x3db982a2	0.09058119
84	0x3d0c7e2e	0.03430002
85	0xbdbd4fc9	-0.092437334
86	0x3d9604bd	0.073251225
87	0x3dd4b3a1	0.10385824
88	0x3be50f91	0.006990381
89	0xbce35ecb	-0.027755162
90	0x3cd789ec	0.026310883
91	0xbd0fc988	-0.035104305
92	0xbca137ae	-0.01967987
93	0xbe17eec8	-0.14837182
94	0xbd4e2bb1	-0.050334636
95	0x3a270c80	0.0006372407
96	0xbcc428fb	-0.023945322
97	0xbd86803a	-0.06567426
98	0xbda40b98	-0.08010024
99	0x3d90aae4	0.07063845
100	0xbd8099ea	-0.06279357
101	0xbd3b6898	-0.045754045
102	0x3ca7cb8b	0.020482799
103	0x3d9c808c	0.07641706
104	0xbda15302	-0.078771606
105	0xbd93e563	-0.072214864
106	0x3e2294f1	0.15877129
107	0x3d170572	0.036870427
108	0xbd916e2b	-0.07101091
109	0xbd20015d	-0.0390638
110	0xbb971dc9	-0.004611705
111	0xbd8cdc08	-0.06877905
112	0xbd9e02ed	-0.07715402
113	0xbd0573fd	-0.03258132
114	0x3db114aa	0.086465195
115	0xbd8182f8	-0.063238084
116	0x3d0c1c95	0.034206945
117	0xbdcac7fb	-0.099014245
118	0xbd1766b4	-0.03696318
119	0x3da4423a	0.08020444
120	0x3b51266f	0.0031913777
121	0x3d66b7b9	0.056327555
122	0xbdacd499	-0.08438987
123	0xbafa4555	-0.0019094149
124	0x3d6844c7	0.056706216
125	0x3da65ce9	0.0812319
126	0x3d7911b8	0.060807914
127	0x3cb343ef	0.02188298
128	0xbcde3cc5	-0.027128587
129	0xbd1e0c32	-0.03858585
130	0x3dfc54c9	0.12320859
131	0x3d621255	0.055193264
132	0x3da1f469	0.07907946
133	0xbc8a7281	-0.016900303
134	0x3c71c22c	0.014755767
135	0xbd9c118e	-0.07620536
136	0x3c21c6cb	0.009874056
137	0x3d0eaa57	0.034830417
138	0x3d442ad6	0.047892414
139	0x3d2ca66e	0.042150907
140	0x3d7a1a20	0.06106007
141	0x3db4ca25	0.088276185
142	0x3dbb7289	0.09152705
143	0xbd07bc34	-0.03313847
144	0x3deb961a	0.11503239
145	0x3db6ec7b	0.08931824
146	0x3d6d4659	0.057928417
147	0xbd8112c9	-0.06302411
148	0x3d906f26	0.0705245
149	0xbc6c4d1e	-0.014422683
150	0xbcde18cd	-0.027111435
151	0xbc8efd0a	-0.017454643
152	0xbc526cff	-0.0128433695
153	0xbd879366	-0.06619911
154	0xbd3c1ccb	-0.045925897
155	0xbd5817bc	-0.05275701
156	0xbd33f849	-0.043937955
157	0xbcee0954	-0.029057182
158	0xbc7ccf14	-0.015430231
159	0x3d001ce5	0.031277556
160	0x3db63d13	0.08898368
161	0x3d12eeea	0.035872377
162	0x3d512595	0.05106123
163	0xbd633fb2	-0.055480666
164	0xbdcb4bd8	-0.099265754
165	0xbd18ed66	-0.037335776
166	0x3d932c97	0.07186239
167	0xbdab880a	-0.08375557
168	0xbc3a7583	-0.011380556
169	0xbc0ec882	-0.008714797
170	0xbdc3dfeb	-0.09564193
171	0x3db08bad	0.08620391
172	0x3dd77cf9	0.105218835
173	0x3d13ce5d	0.036085475
174	0xbdaa7a80	-0.08324146
175	0x3d82ba3e	0.06383179
176	0x3ce19e61	0.027541341
177	0x3d2c39d6	0.042047344
178	0x3d5b9fb4	0.0536191
179	0xbd92035b	-0.07129546
180	0x3df00c6a	0.11721118
181	0xbd842608	-0.064525664
182	0xbd6a0dca	-0.057142057
183	0x3da1c37c	0.07898614
184	0x3e0e06a1	0.13869716
185	0xbd7bb87f	-0.061455246
186	0xbd66accf	-0.056317147
187	0x3e092ce5	0.13396032
188	0xbccfb4c4	-0.02535475
189	0x3d27854a	0.0408986
190	0xbde24bd7	-0.110496216
191	0x3d939cee	0.07207666
192	0x3cea4745	0.028598437
193	0x3df02f9f	0.11727833
194	0xbd01aad1	-0.031657044
195	0x3cdbefdd	0.026847774
196	0x3df4bad5	0.11949698
197	0x3dc7d523	0.097574495
198	0x3dc83b7c	0.09776971
199	0x3b080b99	0.0020758866
200	0x3ce00a7b	0.027348747
201	0xbd2f9b7f	-0.042872902
202	0xbbed373b	-0.00723925
203	0x3ce542c7	0.027985943
204	0xbd9c9ba9	-0.07646877
205	0xbda5f09b	-0.081025325
206	0x3d9d0e93	0.076687954
207	0xbccb07e7	-0.024784042
208	0xbab13b94	-0.0013521784
209	0x3d866e52	0.06564011
210	0x3dac742b	0.08420595
211	0xbd2a671b	-0.041602235
212	0xbd806761	-0.06269718
213	0xbcceba24	-0.025235243
214	0x3d83f9ed	0.06444154
215	0x3ce3fd39	0.027830707
216	0xbd7c1df9	-0.06155202
217	0x3bf0ec36	0.0073523773
218	0x3c4a4cac	0.012347382
219	0x3ca65d9e	0.020308312
220	0xbd5d51e4	-0.054033175
221	0xbe144dca	-0.14482799
222	0x3dd4e053	0.10394349
223	0x3bfc8fd4	0.0077075753
224	0xbca8bec4	-0.020598777
225	0xbd80231f	-0.06256699
226	0x3c8ba2ca	0.017045397
227	0xbd725e1b	-0.059171777
228	0x3d82a85c	0.06379768
229	0xbdd78347	-0.10523086
230	0x3cb5a447	0.02217306
231	0xbd58ff78	-0.05297801
232	0xbd30669a	-0.0430666
233	0x3c3e531e	0.011616496
234	0xbd9ae21e	-0.0756266
235	0x3d2c7c24	0.042110577
236	0x3cb94821	0.022617402
237	0xbdc474cc	-0.0959259
238	0xbc0080f4	-0.007843245
239	0xbc3a8a4f	-0.011385514
240	0x3dcd86c8	0.10035473
241	0xbc9db89f	-0.019253073
242	0x3c84ef3d	0.016227359
243	0x3c63ff49	0.013915845
244	0xbd7a6f59	-0.061141346
245	0xbd4d88bd	-0.050179232
246	0xbb713ccb	-0.0036809917
247	0xbdf9b473	-0.12192621
248	0x3d2be34b	0.04196481
249	0x3c094912	0.008379238
250	0xbdabe7a9	-0.08393795
251	0xbcb79e5b	-0.022414377
252	0x3da00cac	0.07814917
253	0x3d9e9fb3	0.07745304
254	0xbd556609	-0.05209926
255	0x3d504ae4	0.05085267

fc2.bias f4 [84]
0	0xbc99071e	-0.018680152
1	0x3d03d5de	0.03218638
2	0xbcd65320	-0.026162684
3	0x3dc5383a	0.09629865
4	0x3d553806	0.05205538
5	0x3e3a085d	0.18167253
6	0x3cdefea0	0.027221024
7	0xbc321728	-0.010869779
8	0x3cf0081d	0.029300744
9	0x3e6cdda0	0.23131418
10	0x3e47e9e5	0.19522817
11	0xbcb1211b	-0.021622231
12	0xbd3ec19b	-0.046571355
13	0x3e8591eb	0.2608789
14	0x3dfd84d5	0.12378851
15	0x3e995f27	0.29955408
16	0x3c91ad02	0.017782692
17	0x3d44ea46	0.048074983
18	0x3b29e0d1	0.0025921355
19	0xbd4a9fbe	-0.04946875
20	0x3db2d6b3	0.08732357
21	0x3e38222a	0.17981783
22	0xbd867a76	-0.06566326
23	0x3d8fcf16	0.070219204
24	0x3ce19d0f	0.027540712
25	0x3e2175e7	0.15767632
26	0x3c938062	0.018005554
27	0x3d538fe3	0.051650893
28	0xbd93c7df	-0.07215857
29	0xbde77ba5	-0.1130288
30	0x3d7576d4	0.059927776
31	0xbd1542e2	-0.036440738
32	0xbd84e65c	-0.0648925
33	0x3da9d97f	0.08293437
34	0xbd9c8adc	-0.07643673
35	0xbdb3ab8d	-0.08772955
36	0x3e51d923	0.20492987
37	0x3dc172b1	0.09445704
38	0x3d5f5b77	0.054530587
39	0xbd7e786a	-0.062126555
40	0x3d70812a	0.05871693
41	0x3d1cb172	0.038255163
42	0x3d5f72a2	0.05455268
43	0x3e0466b2	0.129298
44	0xbd84c2a8	-0.0648244
45	0xbcb1bee8	-0.021697477
46	0xbe3de759	-0.18545283
47	0xbd183bd3	-0.037166428
48	0x3cd70b17	0.026250405
49	0xbcbc6415	-0.022996942
50	0xbde421d2	-0.11139263
51	0xbdb4168f	-0.08793365
52	0xb7709b15	-1.4341223e-05
53	0xbdc60dd2	-0.09670605
54	0x3e6ddb3b	0.23228161
55	0x3ddc0b0d	0.10744295
56	0x3dde8275	0.108647265
57	0xbdc4ff7a	-0.09619041
58	0x3e589c58	0.2115339
59	0xbd647365	-0.05577411
60	0x3e824c60	0.25448895
61	0x3df6a4d5	0.12043158
62	0x3e920948	0.28522706
63	0x3ee95432	0.45572048
64	0xbd1bc0f6	-0.03802582
65	0xbccf4cd1	-0.025305184
66	0xbde01d4a	-0.109430864
67	0xbc7151fc	-0.014729019
68	0x3e17b5fc	0.14815515
69	0xbd0500d9	-0.03247151
70	0x3e8f9d98	0.28049922
71	0x3df91cef	0.12163722
72	0xbd8b8f33	-0.068144225
73	0xbd9031bc	-0.07040736
74	0x3e8405d6	0.25785702
75	0x3e2b1551	0.1670735
76	0x3e377841	0.17916967
77	0xbca5e7ba	-0.020252097
78	0x3dd2025a	0.10254355
79	0xbdb10073	-0.08642664
80	0x3b749d0c	0.0037325053
81	0x3df5d60e	0.12003718
82	0x3d4ecf13	0.05049045
83	0x3e67cf8b	0.22637765

fc3.weight f4 [10, 84]
0	0x3e168725	0.14699991
1	0x3e2dce5e	0.16973254
2	0xbc587d01	-0.013213397
3	0x3c1cbc7e	0.009566424
4	0xbe414991	-0.1887572
5	0xbc86c0bb	-0.016449323
6	0xbc406288	-0.011742242
7	0x3dc2adb3	0.09505787
8	0x3c92eaba	0.017934192
9	0x3da2dcea	0.07952292
10	0xbe20595d	-0.1565909
11	0x3c61c191	0.01377906
12	0x3dcc9207	0.0998879
13	0x3e1a6449	0.15077318
14	0x3e46780c	0.19381732
15	0xbe987c99	-0.2978256
16	0xbd66ad93	-0.056317877
17	0x3d9145f7	0.07093423
18	0xbce738d6	-0.028225344
19	0xbcd988a0	-0.026554406
20	0x3d833951	0.064074166
21	0x3d8bf979	0.068346925
22	0x3d1e3c09	0.038631473
23	0x3e279415	0.16365083
24	0x3dbdcda7	0.09267741
25	0xbe464c0c	-0.19364947
26	0xbd794c85	-0.06086399
27	0xbd94ba23	-0.07262065
28	0xbb80faf4	-0.003936166
29	0x3d7e4dfd	0.062086094
30	0x3e11e92b	0.14249103
31	0xbdc50beb	-0.09621414
32	0x3e087711	0.1332667
33	0xbe107f12	-0.14110973
34	0xbd78037e	-0.060550205
35	0x3de9b1fd	0.11410902
36	0xbe520840	-0.2051096
37	0x3d70bb72	0.05877251
38	0x3e6fa24b	0.23401754
39	0x3dcd61f4	0.10028449
40	0x3e4364c0	0.19081402
41	0xbe1cace7	-0.15300332
42	0x3e162e47	0.14666091
43	0x3e789676	0.24276146
44	0x3e290313	0.16505079
45	0xbdc41038	-0.09573406
46	0x3c90bc83	0.017668014
47	0xbd287d0a	-0.04113487
48	0x3da7c741	0.081923015
49	0xbe045e6b	-0.12926643
50	0xbc766641	-0.015039028
51	0x3cab9659	0.020945715
52	0x3df7cdfb	0.120998345
53	0x3dc45388	0.09586245
54	0xbe324fd4	-0.17413265
55	0x3d13b7e0	0.03606403
56	0xbe265fd2	-0.1624749
57	0x3d87c325	0.06629018
58	0x3e7a177d	0.24423023
59	0x3e08fc77	0.13377558
60	0xbbb458e6	-0.0055037616
61	0x3d3c8902	0.0460291
62	0xbdf7417a	-0.120730355
63	0xbd9ff127	-0.07809668
64	0xbd483c47	-0.04888561
65	0x3e63204c	0.22180289
66	0x3b07335f	0.0020629985
67	0x3e17f16a	0.14838186
68	0xbb940f66	-0.004518437
69	0x3c9ea38f	0.0193651
70	0x3bdf6b59	0.0068182168
71	0xbc776c16	-0.015101453
72	0x3d46c37c	0.048526272
73	0x3d8adaf9	0.06780047
74	0x3ee9daae	0.45674652
75	0xbcfa1fc1	-0.03053272
76	0xbdb2150d	-0.08695421
77	0xbe0f001b	-0.13964884
78	0x3e11f35a	0.14252988
79	0x3d47582b	0.048668068
80	0xbd5b5a7b	-0.053553086
81	0x3d75c018	0.059997648
82	0xbc259323	-0.010105881
83	0x3e15638f	0.1458876
84	0xbe42d7bf	-0.19027613
85	0xbdd90de2	-0.10598351
86	0xbd3c34b8	-0.045948714
87	0xbd4f5dbf	-0.050626513
88	0xbe7d0192	-0.2470763
89	0xbe88b0c3	-0.26697358
90	0xbcf175d1	-0.029475125
91	0x3e1c283f	0.15249728
92	0x3dfef543	0.12449124
93	0x3dc7bf63	0.09753301
94	0xbe1e2005	-0.15441902
95	0xbdf11f79	-0.11773581
96	0x3dd7470a	0.105115965
97	0xbd01e0c0	-0.03170848
98	0xbde93735	-0.11387483
99	0xbe688162	-0.22705606
100	0x3ec08eda	0.37608987
101	0xbbd66af1	-0.00654351
102	0xbc8953bb	-0.016763559
103	0xbc4b5629	-0.012410679
104	0x3d60b706	0.054862045
105	0x3db3c728	0.087782204
106	0xbd4e0d43	-0.050305616
107	0x3ee10999	0.43952635
108	0xbe3a0fcf	-0.18170093
109	0xbe7c186a	-0.24618688
110	0x3e4ce26a	0.20008245
111	0xbdd58f38	-0.104277074
112	0x3d2a4b20	0.04157555
113	0x3dabff08	0.08398253
114	0xbd33f5e4	-0.04393567
115	0x3d0e6b20	0.03477013
116	0x3e20fde1	0.15721847
117	0x3c2014cf	0.009770586
118	0xbdbcefac	-0.09225401
119	0x3d2a3564	0.041554824
120	0x3db91626	0.090374276
121	0x3985aa61	0.0002549468
122	0x3dff9c68	0.12481004
123	0xbd7e21aa	-0.062043823
124	0x3e145aa0	0.14487696
125	0x3c906718	0.017627284
126	0xbdfcf12c	-0.123506874
127	0xbd927f00	-0.071531296
128	0xbdddbdd8	-0.108272254
129	0x3dde656c	0.108591884
130	0x3e8e45e1	0.27787688
131	0xbdd8bf03	-0.105833076
132	0x3da2779c	0.0793297
133	0x3db419ea	0.08794005
134	0xbdf3bd4c	-0.1190134
135	0xbdaf2c3f	-0.08553361
136	0xbcae3e9b	-0.021270087
137	0x3d624667	0.055242922
138	0xbdaea17e	-0.08526896
139	0xbe3960b9	-0.18103303
140	0xbe3cae06	-0.1842576
141	0x3b938955	0.0045024552
142	0xbe0718a0	-0.13192987
143	0x3caa6e6c	0.020804606
144	0xbdc1c6e3	-0.09461763
145	0x3ea805c3	0.32816896
146	0x3d80cd27	0.0628913
147	0xbe5e8288	-0.21729481
148	0xbdd3ba0a	-0.103382185
149	0x3d2d7db2	0.0423562
150	0xbb925083	-0.004465164
151	0xbd9fec67	-0.07808762
152	0x3da1670c	0.07880983
153	0x3db69741	0.08915568
154	0xbe7f51f2	-0.24933603
155	0x3d56dec0	0.052458525
156	0x3c130a2a	0.008974591
157	0x3e0df28e	0.13862059
158	0xbe83dc48	-0.25754
159	0xbd5e9474	-0.054340795
160	0xbd6089a0	-0.05481875
161	0x3e03dfbe	0.1287832
162	0xbe9651d9	-0.2935932
163	0xbd7f9838	-0.062401026
164	0x3dbd757e	0.092509255
165	0xbd1d25d3	-0.03836615
166	0xbde7f57d	-0.1132612
167	0xbd7ab0bf	-0.061203714
168	0x3e5513c9	0.20808329
169	0x3e0f9c83	0.14024548
170	0xbda9baed	-0.082876064
171	0x3d6b9684	0.05751659
172	0x3dca740b	0.09885415
173	0x3df94e7c	0.12173173
174	0x3d8b9022	0.068146005
175	0xbe18038d	-0.14845105
176	0xbe35c44e	-0.17750666
177	0x3cd50b0a	0.02600624
178	0xbdcddd8b	-0.100520216
179	0x3dbf6656	0.09345691
180	0x3d228286	0.039675258
181	0xbd9a2ede	-0.075284705
182	0x3e3a69fe	0.18204495
183	0x3e726ee1	0.2367511
184	0xbcfac114	-0.030609645
185	0x3c46e569	0.012139657
186	0x3d942d0d	0.07235155
187	0xbdc2edb8	-0.095179975
188	0x3c1f42d2	0.009720521
189	0xbe5041d5	-0.20337613
190	0x3d9e3c86	0.07726388
191	0xbe018798	-0.12649381
192	0xbdc9358c	-0.098246664
193	0x3de4ad79	0.111659
194	0xbdab73aa	-0.083716705
195	0x3c12095c	0.008913364
196	0x3d56581c	0.05233012
197	0xbde6efc4	-0.112762004
198	0x3d7fe508	0.06247428
199	0x3df1e2f4	0.11810866
200	0x3ddc166c	0.10746464
201	0x3d6b87c2	0.057502516
202	0xbda9ce05	-0.08291248
203	0xbd7b50dc	-0.06135641
204	0xbe544e1b	-0.2073292
205	0xbd4b4d99	-0.04963455
206	0xbe0123f6	-0.12611374
207	0x3e401970	0.18759704
208	0xbbb4fa34	-0.0055229906
209	0x3e0896b8	0.13338745
210	0xbc6f8944	-0.014620129
211	0x3dea37f8	0.114364564
212	0x3d78335a	0.060595848
213	0x3e26333d	0.16230483
214	0x3e32192a	0.17392412
215	0x3e5ce573	0.21571903
216	0x3e413139	0.18866433
217	0x3d9f25d3	0.07770886
218	0xbdaeb976	-0.085314676
219	0x3d627d14	0.055295065
220	0x3e750395	0.23927148
221	0xbcf4cd96	-0.029883187
222	0x3e25c56d	0.16188593
223	0x3dc3063b	0.09522673
224	0xbd64e8e7	-0.055886175
225	0x3d224654	0.03961785
226	0x3e240914	0.16019088
227	0x3dd8a2fe	0.10577963
228	0xbdcc0392	-0.099616185
229	0xbded76c4	-0.11594918
230	0x3e5f2dcd	0.21794815
231	0x3e3d6ed3	0.18499307
232	0xbcbfeb4f	-0.023427634
233	0xbd84b2d3	-0.064794205
234	0xbd08446a	-0.03326837
235	0x3c328141	0.010895074
236	0xbd29e1f3	-0.041475248
237	0xbd4331b8	-0.047654837
238	0x3e453073	0.19256763
239	0xbd9a21c0	-0.075259686
240	0x3dd81bb5	0.1055216
241	0xbdbbb247	-0.09164863
242	0x3ccd7df2	0.02508447
243	0x3e026762	0.1273475
244	0xbe23da09	-0.16001143
245	0xbd868d09	-0.06569869
246	0x3e6c943a	0.23103419
247	0xbc1e6eea	-0.009669999
248	0x3deff992	0.11717524
249	0x3d76d767	0.060264017
250	0xbe1b57a1	-0.15170147
251	0xbd4b9448	-0.04970196
252	0x3cffc081	0.031219723
253	0x3e268c94	0.16264564
254	0xbd024284	-0.031801715
255	0xbd97e271	-0.07416237

fc3.bias f4 [10]
0	0xbec3456f	-0.3813891
1	0xbeb5efe3	-0.35534582
2	0x3bba16f5	0.005679006
3	0x3ea20f28	0.31652188
4	0x3f03895f	0.51381487
5	0xbe316521	-0.17323734
6	0x3e088780	0.13332939
7	0xbe90f958	-0.28315234
8	0x3ea4bc49	0.321749
9	0xbe1ce56b	-0.15321891
